checkpoint.pth (torch, 28213 bytes, 9 tensors)

lstm.weight_ih_l0 f4 [80, 10]
00000000: 7062 01bc bfa2 54be 1af3 43be 709f 103d
00000010: 4018 3fbd 000f e3bb e8cd 253e fa26 4abe
00000020: e0bd 4a3e c63c 25be 567b 45be ba70 2cbe
00000030: f8ca 103e 5c79 ef3d 7851 80bc 80a9 073c
00000040: 19ad 2bbe 4c20 0cbe fe26 0a3e 90bc fd3c
00000050: 262f 19be b838 3e3d 5e19 63be 28f5 023d
00000060: 0061 963b 8138 3fbe 7c23 593e b863 833c
00000070: b06b 473e d629 323e c9b8 38be 104b 253e
00000080: 2409 e5bd 6631 1b3e d6a5 3dbe f00e 9c3c
00000090: c86b 93bc 80bd 6cbb 9472 de3d b30d 40be
000000a0: f83b a33c 3bff 54be 55b9 49be 0fb0 2dbe
000000b0: 0063 67bd 50a9 093d 14fe 593e c08d 803d
000000c0: 88db febd c890 27be ec97 5b3e 2c59 acbd
000000d0: 5806 8fbd 604c 473d 5601 f8bd 848a 233e
000000e0: 3879 9fbd 2ab5 2bbe 7295 0dbe a093 213d
000000f0: 8038 7d3d dcc9 9e3d 98ab 5f3d 2e0f 1f3e
00000100: 1e7f 373e 980e d13c 42fe 233e 82cc 033e
00000110: c0aa da3d 5a60 173e fea2 353e 3c64 39be
00000120: 2002 c6bb da47 363e 4a22 3a3e 6860 1abe
00000130: e0bb 14be c21b 14be f066 3cbe 20a3 633d
00000140: 691f 28be 24bb 2b3e f6cf 633e 60b9 1cbe
00000150: f801 e63d 3d4d 04be b08a 5a3d ccf6 6cbd
00000160: 803f b4ba 1e3f 2fbe 1e3c f1bd 78f9 33be
00000170: 7432 083e 18dd 163d 5ab7 62be a077 1bbe
00000180: 58f3 473e 4a16 0d3e 1415 d1bd d8f8 1e3e
00000190: ce76 643e 786c 4dbd e4a8 6dbd fb9c 4bbe
000001a0: f471 913d fd40 5ebe e034 f4bc 4444 913d
000001b0: 98f5 efbc c982 3dbe ac71 48bd 7fe8 21be
000001c0: 386a 6abd 9046 c43c 08fc 073d 68d7 973c
000001d0: 8ce6 a23d 8433 0cbd 40cb 803d c6cb b6bd
000001e0: d98e 33be 0883 cebd 3ab0 113e 0a9c 1e3e
000001f0: 8a37 a2bd e73e 1cbe 1965 4ebe a8db fb3d
00000200: f8fb 9f3d c0f5 5bbd 949e 51bd c561 00be
00000210: a79b f1bd f0cc 683c 808c 623e 92d1 15be
00000220: c2a5 dcbd 96c5 e6bd 20b3 6c3d 9002 b4bd
00000230: 030b 37be c43c 78bd 32d9 5fbe 649e ce3d
00000240: c0a5 673c 354c fcbd 0321 29be 509b 393c
00000250: f044 d83d 7257 113e e723 2bbe 06a2 1dbe
00000260: c768 2abe 30ca 413c 6e3a 343e 7091 9dbd
00000270: f66d 92bd acfe 353e 4d6e e9bd 7012 3e3e
00000280: 80ef 14bd a001 3dbc a4c8 4dbd 5403 013e
00000290: 2079 a3bb 3a8f 9cbd 2cec 25bd 60a8 ffbc
000002a0: a084 d03d c459 2dbd 826b 85bd 5e71 06be
000002b0: 88af 293d dcc6 23bd 7075 813c 124f 253e
000002c0: 40a9 a33b 68e1 fabc 441c 29bd 806b 623d
000002d0: fe99 91bd aa77 0cbe 6467 24be f02f 493e
000002e0: c8cd e1bc 2269 173e 5294 633e 3877 3f3d
000002f0: eabb 0dbe d075 7a3c 97ea 36be 0a15 27be
00000300: 04f5 e23d beb0 383e 3ca3 c13d 0173 46be
00000310: 58a0 25be 8a0a 4cbe a08c 113c 20c8 283e
00000320: 5e08 3d3e 401a 0a3e b0df 3f3d 7891 733d
00000330: 782e bb3d f276 2d3e 800e 3c3e b268 2b3e
00000340: a897 553d 1253 5bbe 00ae a03b d03b 843d
00000350: a82f a13d caad d9bd f45a 8b3d 460b 493e
00000360: 7660 3c3e 2068 863c 2c92 f53d 7848 e23d
00000370: cfdd 4abe 6e4d 4c3e 50ce 163d 7ee5 09be
00000380: 9022 883d b9a1 46be ec95 af3d 1640 9ebd
00000390: e062 dfbc eea8 263e 404a e33d 3e5d 293e
000003a0: 6aa5 093e b49e 01be a8bb a13c 1c08 00bd
000003b0: f87f d43c 27c5 cebd 8437 463e b856 0fbe
000003c0: 3083 523e 744e 0ebe 0647 1e3e 808e f7bd
000003d0: c5d1 fbbd 6277 1e3e 380b d63d b4eb 973d
000003e0: ea6a 373e f4da 4c3e 49d1 cfbd bced b83d
000003f0: 0231 53be b6fd 593e 8a0e c8bd 7027 fbbc
-0.0078970045 -0.20765208 -0.19135705 0.0353083 -0.046653986 -0.0069292784 0.16191828 -0.19741431
0.19798994 -0.16136464 -0.1928533 -0.16839877 0.14139926 0.11693069 -0.015663847 0.008280158
-0.1676525 -0.13684195 0.13491437 0.030973703 -0.14959392 0.04644081 -0.22177646 0.03197208
0.0045892 -0.18673898 0.21204942 0.01603876 0.19474673 0.17398772 -0.1803924 0.16141915
-0.11183384 0.15155563 -0.18520293 0.019050092 -0.01799573 -0.0036123693 0.10861698 -0.18755226
0.019926056 -0.20800488 -0.19699605 -0.16961692 -0.056490898 0.033608735 0.2128833 0.06277037
-0.12444216 -0.16363823 0.21444672 -0.08415446 -0.06983632 0.04865682 -0.1210963 0.15970808
-0.077867925 -0.16768327 -0.1382654 0.039447427 0.06182146 0.07753345 0.054607004 0.15533134
0.17919585 0.025519654 0.1601496 0.12870982 0.10677099 0.14782849 0.17737958 -0.18104643
-0.006042734 0.17800847 0.18177143 -0.15075839 -0.14524794 -0.14463714 -0.18398643 0.05557549
-0.16418232 0.16770607 0.222473 -0.1530509 0.11230844 -0.12920089 0.05335492 -0.05785255
-0.0013751835 -0.17113921 -0.117790446 -0.17575634 0.13300496 0.036831945 -0.22140256 -0.15182352
0.19526422 0.13778034 -0.102090985 0.15524614 0.22310945 -0.050152272 -0.058022395 -0.19884102
0.07101813 -0.21704479 -0.029810369 0.07093099 -0.029291913 -0.18506922 -0.04893653 -0.15811346
-0.057230204 0.023959428 0.03319934 0.01853533 0.079541296 -0.034228817 0.06288767 -0.089255854
-0.17534961 -0.10083586 0.14227381 0.15489212 -0.079207495 -0.1525837 -0.20155753 0.122977555
0.07811731 -0.053701162 -0.051176623 -0.12537296 -0.117972665 0.014209017 0.22123909 -0.14630726
-0.10773803 -0.11268155 0.057788014 -0.08789551 -0.17875294 -0.060604826 -0.21860197 0.10088804
0.014138639 -0.12319223 -0.16516499 0.011328533 0.10560024 0.14193514 -0.16712914 -0.15393838
-0.16641532 0.01182799 0.17600414 -0.076937556 -0.0714988 0.17772931 -0.11397991 0.18561721
-0.036361217 -0.011536032 -0.050240174 0.12598926 -0.0049888045 -0.07644506 -0.040508434 -0.031208217
0.10181546 -0.042321935 -0.06514646 -0.13129184 0.041427165 -0.03998457 0.015803069 0.16143444
0.0049945414 -0.03062506 -0.04128672 0.0552783 -0.0710945 -0.13717523 -0.16055065 0.19647193
-0.027563944 0.14786199 0.22224548 0.046744555 -0.13841215 0.015286878 -0.17862926 -0.1631662
0.11081889 0.18036172 0.094549626 -0.19379808 -0.16174448 -0.19925895 0.008883625 0.16482592
0.18460223 0.13486576 0.046844184 0.0594649 0.091397226 0.16939905 0.18364906 0.16739157
0.052146584 -0.21418408 0.004903555 0.06456721 0.07870418 -0.10628851 0.06804457 0.19633207
0.18396172 0.016407073 0.11990771 0.110489786 -0.19811176 0.19951412 0.03681785 -0.1346645
0.06647217 -0.1939763 0.08573517 -0.07727067 -0.027268827 0.16275379 0.110981464 0.16539475
0.13442007 -0.12658197 0.019742802 -0.031257734 0.025939927 -0.100961976 0.19357115 -0.13997924
0.20557857 -0.13897115 0.15456781 -0.120877266 -0.1229587 0.15475228 0.104513586 0.07418004
0.17911878 0.20005399 -0.1014734 0.09029719 -0.20624164 0.2128819 -0.09768398 -0.030658454

lstm.weight_hh_l0 f4 [80, 20]
00000000: 4656 34be 4914 34be 805b e23c 2e97 c2bd
00000010: 9801 a1bd a8f9 d23d 081f 77bd 081c 213d
00000020: 2095 83bc e073 bd3d 8b9f 28be 8ccc 00be
00000030: f764 59be 403c 253b dc03 38bd 7071 2f3d
00000040: 1839 043d e873 3b3d dcdd c73d 6401 f43d
00000050: 9044 c43d fe69 54be 3057 d23d 586e 343e
00000060: 064b 213e 202d ebbd ed6f 22be d422 ec3d
00000070: ac29 f83d 503c 093d e017 0ebd 7cdf 5cbe
00000080: 8057 4e3c c0e9 6fbc 9016 5abe 377f 41be
00000090: 4010 4b3c e0ec db3d d8e7 8d3d 1846 32bd
000000a0: 224a 14be a2f8 f9bd d4da a9bd a00c 8a3b
000000b0: c669 97bd 1859 7cbd a3c4 3cbe fe0b 38be
000000c0: 147e d53d ec8a 053e b4a4 f73d 7a2c 473e
000000d0: 6efa 9cbd e4ec e53d 6ee8 1d3e ea1b 4d3e
000000e0: 5ce7 0cbe 4a8a fdbd 8817 ce3c e019 ce3d
000000f0: 5453 373e 703c 2a3e f02c 5e3d f47f adbd
00000100: cfdf 4abe a601 bdbd f016 093e a8a4 7d3d
00000110: dc73 f83d 20df 68bc f0f5 e5bd 46f0 083e
00000120: eafc d7bd 84df 823d 0497 cd3d 707c e63c
00000130: 1609 52be 2535 62be 3804 583e 28f7 083d
00000140: 30fd 63bc 5a86 3c3e d25b c8bd a34b 63be
00000150: 58b4 0dbd b29e 093e 8c03 033e a09a c73b
00000160: 8ec9 5c3e 44f7 45be 281f 0f3e 3c5d dc3d
00000170: e2de 3b3e 7808 9f3d d8a5 4dbe 6432 a4bd
00000180: 48d3 3f3d 1c9d 293e d246 543e 3ac2 bbbd
00000190: 00e4 603e aa72 023e 5cb8 873d 38bb 243d
000001a0: c857 44bd 6433 d03d 6896 69bd bac9 59be
000001b0: b4ab e93d c643 113e a35c 5dbe a09f 1c3c
000001c0: d444 ea3d 82dd 5dbe b869 073d b621 57be
000001d0: b013 96bd a8ea 873d 48cf 943c 04e7 75bd
000001e0: 2bba 34be 7a86 163e 0461 da3d 0068 5d3e
000001f0: 9049 113d cc6c a23d 6098 183e f8ba 033e
00000200: 2ed8 1b3e 104b 7fbd 8e05 25be aac2 42be
00000210: 552e 0bbe 00ed 403e 64b9 15bd 900a 5a3e
00000220: d850 473e 56b0 f8bd c248 c0bd 883a 23be
00000230: ccad 1b3e 6cf3 4cbe b6e6 64be 5853 ad3c
00000240: d0b4 293e 8456 873d 1296 5fbe bcdc 1bbe
00000250: 8e70 81bd f26a 443e fc82 ee3d 0e1a 283e
00000260: e02f d9bb ccb2 ef3d ee69 07be 140c 873d
00000270: 88bf bb3d 0a00 2b3e ac1d a63d 70e2 adbd
00000280: 6c17 0f3e 20a0 c5bb e30e 03be 901d 123d
00000290: 3bc2 61be 805c 27bc a0aa 573d 74e6 28be
000002a0: 9c78 5b3e e883 323d 38eb 0b3e 40ca 243e
000002b0: a8e2 973d 2485 023e d0be e93d 121d 3b3e
000002c0: 342a ba3d e112 ecbd b691 233e 7051 49be
000002d0: ec45 a1bd 5879 0c3d 5058 233d 8ef5 12be
000002e0: a2a3 c4bd b83e 0b3d 4a04 2abe 837a 22be
000002f0: 6a4a 613e e0d2 95bc 1f21 61be a4cb 473e
00000300: 36e2 4d3e 3e55 25be 12aa e8bd de83 29be
00000310: 10f8 ca3c 5e7f 54be e8fe 343e 7041 5f3d
00000320: 7c67 36be c075 573c 2f5d f9bd 0031 323d
00000330: 309a 2d3d 80b9 1e3b a8de 4c3d 16a0 60be
00000340: 141d 3b3e 06e4 413e 101b 603d f40d 9f3d
00000350: 0416 40bd 4a4a 093e 644b 8a3d 2084 c43b
00000360: 0e33 483e 909d 45bd 326d 21be 40dd 073c
00000370: 642a 35bd f51e 34be 08b3 bb3c e0b1 00bc
00000380: 0e6b b2bd d2fc a3bd 7c69 d13d 7c2c 193e
00000390: 269f fbbd 90ed 34bc c4d1 ccbd d8f9 4a3d
000003a0: 0424 083e a04c 453c ad32 fcbd 6035 6a3c
000003b0: fcb5 cf3d 94db 803d 48d6 49bd dbbd 3abe
000003c0: 0878 a63c 0cf7 bd3d d040 55bc 2452 0abe
000003d0: 5855 9b3d 50a4 8b3d 7867 ccbc 00b8 983d
000003e0: b8ce 603e bc19 2d3e 3468 efbd c08d cf3d
000003f0: 2006 0bbe d012 583c 383d 803d 44ba 4d3e
-0.17611036 -0.17585863 0.027631521 -0.095014915 -0.07861632 0.103015244 -0.060332328 0.039333373
-0.01606232 0.09250617 -0.16467111 -0.12578028 -0.21229921 0.0025212914 -0.044925556 0.04283279
0.03228101 0.045764834 0.09759113 0.11914328 0.0958339 -0.20743558 0.10270536 0.17620218
0.15751275 -0.11483216 -0.15863009 0.115300804 0.12117323 0.033504784 -0.034690738 -0.21569628
0.012594104 -0.014643133 -0.2129767 -0.18896185 0.012394011 0.1073854 0.06928986 -0.043523878
-0.14481404 -0.12205626 -0.08293691 0.004212931 -0.073932216 -0.061608404 -0.18434386 -0.17973325
0.10424438 0.13041276 0.120919615 0.1945056 -0.07664953 0.11226824 0.15420696 0.2003018
-0.13760132 -0.12379892 0.025157705 0.10063529 0.17902881 0.16624618 0.054242074 -0.08471671
-0.19811939 -0.0922883 0.13387656 0.061924607 0.121314734 -0.014213353 -0.112285495 0.13372907
-0.105462864 0.063902885 0.100385696 0.028135508 -0.20511279 -0.22090586 0.2109536 0.03343883
-0.013915345 0.18410626 -0.09783138 -0.22196822 -0.034595817 0.13439444 0.12794322 0.006091431
0.21561262 -0.19332606 0.13976729 0.107599705 0.18346742 0.07765287 -0.20082796 -0.08017424
0.046832353 0.16563839 0.20730141 -0.09167905 0.21961975 0.12739053 0.06626961 0.04021761
-0.047935277 0.10166052 -0.057028204 -0.21268359 0.11409703 0.1418601 -0.2161737 0.009559542
0.11438909 -0.2166653 0.033059806 -0.21008953 -0.07327974 0.06636554 0.018165246 -0.060034767
-0.17649142 0.14699736 0.106630355 0.21621704 0.035470545 0.079309076 0.14901876 0.12864292
0.15219185 -0.062327445 -0.161154 -0.19019571 -0.13591893 0.18840408 -0.036553755 0.21293092
0.19464433 -0.121430084 -0.093888775 -0.15940297 0.15203017 -0.20014733 -0.22353634 0.021157905
0.1657288 0.066082984 -0.21834591 -0.15220922 -0.06320296 0.19181421 0.11646077 0.16416189
-0.0066280216 0.11704025 -0.13224003 0.065941006 0.09167391 0.16699234 0.08111128 -0.08490455
0.13973778 -0.0060310513 -0.12798648 0.035672724 -0.2204675 -0.010214925 0.052652955 -0.16494161
0.21432728 0.043582827 0.13663948 0.16092777 0.07416278 0.12746102 0.11413348 0.18272808
0.09090081 -0.11527038 0.15973553 -0.19659972 -0.07874665 0.03429541 0.039879143 -0.14351484
-0.09601523 0.03399536 -0.16603199 -0.15867047 0.22001043 -0.01828903 -0.21985291 0.19511276
0.20105824 -0.16145799 -0.11360563 -0.1655421 0.024776489 -0.20751712 0.17675364 0.054505765
-0.17812914 0.013150632 -0.121759765 0.04350376 0.042383373 0.0024219453 0.05001703 -0.21936068
0.18272811 0.1893464 0.05471331 0.07766333 -0.046895996 0.13407245 0.06752661 0.005997196
0.19550726 -0.048245966 -0.15764311 0.008292496 -0.04422988 -0.17589934 0.022912517 -0.007854909
-0.08711825 -0.08007206 0.10225198 0.14958376 -0.122862145 -0.011042967 -0.10000947 0.049554676
0.13294989 0.012042195 -0.12314353 0.014294952 0.10142133 0.06291881 -0.04927662 -0.18236487
0.020320907 0.09275636 -0.013015941 -0.13507897 0.075846374 0.068184495 -0.024951681 0.0745697
0.21953857 0.16904348 -0.11689797 0.101344585 -0.13576555 0.013188079 0.062616765 0.20090586

lstm.bias_ih_l0 f4 [80]
00000000: bc24 b23d 4007 2dbd f437 4a3e 20fe ef3d
00000010: 3d05 ebbd 96ee 51be 481b 1a3d 4cf2 a9bd
00000020: ba6b 32be d6b6 c4bd e6ee 62be 421b bbbd
00000030: e083 283d 7d3e f6bd 1a9f 5e3e f96d cfbd
00000040: 8cbf 90bd 9c29 2e3e 709d 7fbd f41a 10bd
00000050: 18c3 20be fa29 253e 6854 e9bd bcfa 10bd
00000060: 10c9 973c b833 bc3c 9895 1e3e d0d1 ee3c
00000070: b9e9 50be b688 313e 1caf 1bbd 2f7b 04be
00000080: f2b0 d0bd 98b8 93bd f8bb 66bd 6635 bdbd
00000090: 8cf0 8e3d 1aa9 203e 6ece d6bd 107d 153e
000000a0: b951 e2bd 70a6 ea3d 3126 26be 6415 3e3e
000000b0: e28c 29be 28d3 0a3d aced 7bbd baf0 fbbd
000000c0: b750 f8bd 2862 c3bc f0a3 553d a961 d5bd
000000d0: 2e66 4b3e 4643 bbbd 67af 48be 90d3 133e
000000e0: 1eba 0a3e 1e3f 00be 426f 04be 5eee 1bbe
000000f0: 22c1 0d3e b242 0dbe f2d9 413e 44fc bb3d
00000100: fc8a 423e 206d 1dbe acbb 0bbd 5c59 8c3d
00000110: d817 8c3d b01b a2bc c4fc 61be 08a5 3cbe
00000120: 7cad 17bd 0002 e6bd 3043 5d3d dd19 2dbe
00000130: 743d 8d3d 3834 dc3d 54a5 43be 4278 8abd
0.08698413 -0.042243242 0.19747907 0.11718392 -0.114756085 -0.2050117 0.037623674 -0.082981676
-0.17423907 -0.09605186 -0.22161445 -0.091360584 0.04114139 -0.120236374 0.2174038 -0.101283975
-0.07067785 0.1700806 -0.062406003 -0.035181955 -0.15699422 0.16129294 -0.11393052 -0.03539537
0.018528491 0.02297388 0.15486753 0.02915278 -0.20401658 0.17337307 -0.038008794 -0.12937616
-0.1019 -0.07212943 -0.056331605 -0.092387006 0.069794744 0.15689507 -0.10488592 0.14598489
-0.110507436 0.11457527 -0.16225506 0.18562847 -0.16557649 0.03389278 -0.06150596 -0.12301774
-0.1212477 -0.023850515 0.052158296 -0.10419018 0.19863197 -0.09143691 -0.1959816 0.14436173
0.1354756 -0.12524077 -0.12933066 -0.15227649 0.13843206 -0.13794973 0.18930796 0.09178975
0.18998331 -0.15373659 -0.034114525 0.068529814 0.06840485 -0.019788593 -0.22069079 -0.1842233
-0.037030682 -0.1123085 0.054019153 -0.16904397 0.06896487 0.107521474 -0.19106036 -0.067612186

lstm.bias_hh_l0 f4 [80]
00000000: a3fe 41be e887 1b3d 6947 4fbe c0ac c43d
00000010: 90c8 263d 59c1 04be ca18 a7bd 00d4 cdb9
00000020: 240a 8d3d 2fc2 f2bd 16d8 9ebd f42c 9c3d
00000030: 3fc3 5bbe b6f3 aebd f81e 613d 4a0b 1a3e
00000040: f8ff 98bc 6419 0f3e 8e07 35be b198 d4bd
00000050: 7e31 93bd 601f fdbd f49b 40bd 60b1 f93d
00000060: 804a cf3a f412 483e 1697 59be d8f2 61be
00000070: d4e0 51bd c939 e4bd ba9f afbd 88a6 043e
00000080: ec66 3fbe 50a4 673c d8d0 21be 05a5 54be
00000090: 3a87 1b3e 14f6 ba3d ac55 f13d 0c2a 20be
000000a0: 00fa f73b a462 163e b812 363d 04a6 3bbe
000000b0: e090 983d c213 0ebe c883 d03d f85a e2bc
000000c0: e4fc 22bd 986d 44bd 78af 1d3d 9456 56be
000000d0: 85f6 34be c43f 17be 73e3 59be faf9 0bbe
000000e0: a85c ca3d b442 51bd 4bc3 e5bd 1e0f 363e
000000f0: 56e5 4f3e e0fb 3bbc cce7 39bd c80e 273d
00000100: 504d 423e eabf 5a3e 72ee 0cbe eaa7 a2bd
00000110: 1432 05bd bc67 a83d 2658 603e c0ad bbbd
00000120: 0035 0abe 5478 f93d ecf0 083e 1283 a6bd
00000130: 712b 24be 93f4 e7bd 240f 523e 6834 62bd
-0.18944792 0.037971407 -0.20242085 0.09603262 0.040718615 -0.12964381 -0.08159025 -0.000392586
0.068867 -0.11853444 -0.07756059 0.07625762 -0.21461199 -0.08542578 0.054961175 0.15043369
-0.018676743 0.1397453 -0.17678663 -0.10380686 -0.07187174 -0.123595 -0.04702373 0.12192035
0.0015815049 0.1953848 -0.21249041 -0.22065294 -0.051239803 -0.11143834 -0.08575387 0.12954152
-0.18691605 0.014138296 -0.15802324 -0.20766075 0.15188304 0.09128967 0.11783919 -0.1564104
0.007567644 0.14686066 0.044451445 -0.18325049 0.07449508 -0.13874725 0.10181385 -0.027631268
-0.039791957 -0.04795608 0.03849742 -0.20931464 -0.17672165 -0.14770418 -0.21278171 -0.13669577
0.09880954 -0.051089004 -0.1121889 0.17779204 0.20302328 -0.011473626 -0.045387074 0.04078558
0.18974805 0.21362272 -0.13762835 -0.07942183 -0.03251846 0.08222911 0.21908626 -0.091639996
-0.1349678 0.12181154 0.13373154 -0.081304684 -0.16032197 -0.11325946 0.20513588 -0.05522576

lstm.weight_ih_l1 f4 [80, 20]
00000000: 8019 0ebd 54c2 2fbe d89f adbc 36f1 2dbe
00000010: c86b 84bd c0bf 823c 18e7 a23d 7012 f2bc
00000020: 2eae 233e 9a1c 4d3e a803 9e3c 4a80 5abe
00000030: 6096 383d 889c 913c 61a5 40be 3861 af3c
00000040: 44fe 4cbe 88f8 d13d 5e63 0ebe 4a6c 5ebe
00000050: 9e70 12be 603c a73b 46c0 4c3e c0ca 1c3c
00000060: e624 2c3e 06a4 1dbe 0005 053a 10d8 0a3c
00000070: 08a0 4d3e 031a e8bd b281 c7bd f243 05be
00000080: 7ee3 0f3e b844 fb3d f039 85bd 8e5e 91bd
00000090: 6cfa 823d c7d4 d7bd 5cfd 913d 054d ddbd
000000a0: a514 febd f849 b83c 5a59 4abe 4c2a c1bd
000000b0: 1269 1f3e b9f4 14be 503a 193d ece5 75bd
000000c0: 4ef4 003e 18c9 1dbd 7017 143c 5032 7fbc
000000d0: 00de 50bd 0693 03be 7762 f2bd 086e abbc
000000e0: e489 c3bd 172e 2fbe 346e 383e 2403 f63d
000000f0: c0b0 82bb f075 673d 80d4 203e 780c 8d3d
00000100: c05e 323d 56cf 2f3e 1f08 03be 087a 9abc
00000110: 065c d4bd fb4b 0fbe d4f9 03be 0ee1 363e
00000120: 1825 953c f868 cb3d 6429 27bd c07d 363b
00000130: ec28 1cbd 80d3 47bb e0a1 703d eca5 f53d
00000140: 0c65 65bd 4023 193d d07c 5dbd 50fd c63d
00000150: 9095 f43c 3810 8dbd 129e 3bbe c09d 053d
00000160: b856 4cbd a2de 4c3e 2437 4b3e 78cb 4a3d
00000170: 029b 353e f0e8 32bd 6a5a 2e3e ccc5 3a3e
00000180: 0066 71ba 8bbe 57be 51bf 11be 968a a2bd
00000190: 2054 db3b ec19 bd3d 6239 023e 53f7 47be
000001a0: d0d2 493d 8c3d 1fbe 684c ddbc b66e 473e
000001b0: f6db 3e3e 686d 863c 52aa 16be f4b9 d73d
000001c0: 9026 403e 42d8 31be 2085 273d 72df c9bd
000001d0: 766b 3c3e a829 9f3d c8d9 24be c065 a63b
000001e0: 3ad5 5f3e 8023 2a3d 3411 11bd 38db 1b3e
000001f0: 50b6 d1bc f81f 033d f444 0bbd 1af3 d5bd
00000200: d033 da3d f619 16be dce5 0a3e 88f3 1e3d
00000210: f216 89bd 323c 163e e0c8 0e3c c05f 633e
00000220: a807 043e 0c68 e63d 68ba 11be 162b 003e
00000230: a0c0 b43d bac0 15be 6412 973d b801 5dbe
00000240: 1cfc e1bd 72df 563e 3677 023e 6eae 4a3e
00000250: f8f9 623d e8a4 adbd 4430 31be 64e5 2abe
00000260: 4cb0 5a3e b0d2 143c 148f bd3d 34c5 1bbe
00000270: e846 f53d deab 10be 342b 20be fa91 84bd
00000280: 3ce9 383e 9e48 603e 7003 ac3d b041 ce3d
00000290: 7011 993d beb6 0c3e e4fa 40be f847 7d3d
000002a0: 9c7e 863d 60bc c5bd 20e3 11bc f453 e03d
000002b0: 4438 583e 18eb 46be 9043 eabc 0dde 07be
000002c0: bcdf debd 22d8 273e 9461 643e 7634 2f3e
000002d0: d43d e63d 994c 52be 78ba 633d 24e6 163e
000002e0: 7227 583e e817 de3d 60e1 d23b d0c3 223c
000002f0: c679 b9bd bc09 fc3d 50aa 873c 9087 cc3d
00000300: 00b2 edbc f4f7 39be 1486 ab3d f80b 2b3e
00000310: ea25 14be a0a0 89bb 80a0 d1bd 0642 023e
00000320: 48ae c03d 00e0 5abd 58fd 8dbc 30a2 2dbd
00000330: d670 56be 5e83 1b3e 2045 a4bc 4ef2 41be
00000340: 20af f1bb 1452 ac3d d2ad 0f3e 5876 2dbe
00000350: b809 08be 6891 a73c 48c3 03bd a005 fdbc
00000360: e0b8 e43d 13b2 43be b839 18be 9041 8cbd
00000370: 8078 4cbd 000c 10be d01f 493d 7821 6bbd
00000380: 48b8 4f3e 50e6 163d 58f6 7e3d 802e 8bbd
00000390: 58fd 303e 14ad ad3d 57a2 12be f701 dabd
000003a0: 2070 d6bc 84b2 21bd e293 1e3e 2e0a 163e
000003b0: efed 03be 503f d73c 62bb 263e 8836 5c3d
000003c0: bc8c 0cbe 6847 3e3e 4868 5c3e 60a8 edbd
000003d0: a598 41be b09c 093e a00a 66bd ccfb 0d3e
000003e0: 9479 18be 8a7b 0e3e 1851 f5bc a61c 32be
000003f0: 8017 98bb 30d6 8c3d c06a e4bb 96d4 563e
-0.034692287 -0.17163974 -0.021194384 -0.16986546 -0.0646587 0.015960574 0.07954234 -0.029549807
0.15984413 0.20030442 0.019288853 -0.21338001 0.045065284 0.017774835 -0.18813087 0.021408662
-0.2001887 0.10252482 -0.13905093 -0.21720996 -0.14300773 0.005103633 0.19995221 0.009569824
0.1681095 -0.15394601 0.00050742924 0.008474365 0.20080578 -0.11333086 -0.09741534 -0.130142
0.14051625 0.122689664 -0.06505191 -0.07098113 0.063954204 -0.10538631 0.071284026 -0.10805706
-0.124062814 0.022496209 -0.19760647 -0.094318956 0.15567425 -0.1454648 0.037409127 -0.060033724
0.12593195 -0.038521856 0.009038791 -0.01557596 -0.050992966 -0.12849054 -0.11835187 -0.02092649
-0.09547785 -0.17107426 0.18010789 0.12012318 -0.0039883554 0.05650896 0.15706062 0.06887144
0.043547392 0.17168936 -0.12796067 -0.018857017 -0.103691146 -0.13993828 -0.1288827 0.17859289
0.018206164 0.099321306 -0.040810958 0.002784595 -0.038124964 -0.0030491054 0.058748126 0.11994538
-0.05600457 0.037387133 -0.05407411 0.09716284 0.029856473 -0.06887859 -0.18322018 0.032621145
-0.04988739 0.20006803 0.19845253 0.04951045 0.17734912 -0.043679178 0.17026678 0.18239516
-0.00092086196 -0.2106878 -0.14233138 -0.079365894 0.006693378 0.0923346 0.12717202 -0.1952794
0.049273312 -0.15550822 -0.027013972 0.19475827 0.18638596 0.01640959 -0.1471341 0.105335146
0.1876471 -0.17367652 0.040898442 -0.09857072 0.18400368 0.07771617 -0.16098702 0.0050780475
0.21858683 0.04153776 -0.035416797 0.15220344 -0.025599629 0.03201291 -0.034001306 -0.104467586
0.10654414 -0.14658341 0.13564247 0.03880647 -0.066938296 0.146714 0.0087148845 0.22204494
0.12893546 0.11250314 -0.14231265 0.12516436 0.08825803 -0.146243 0.073765546 -0.21582687
-0.11034414 0.20983675 0.12740788 0.19793102 0.05541417 -0.08478719 -0.17303568 -0.16689068
0.21356314 0.009083435 0.092558056 -0.15211946 0.11976415 -0.14128062 -0.1564148 -0.06473155
0.18057722 0.21902701 0.08399093 0.10071123 0.07474029 0.13741586 -0.18845707 0.061836213
0.065671176 -0.0965507 -0.0089042485 0.10953513 0.21115214 -0.19425619 -0.02859667 -0.132683
-0.10882518 0.16391042 0.22302848 0.17109856 0.112422615 -0.20537032 0.055597752 0.14736229
0.21108797 0.108444035 0.006435558 0.009934381 -0.090564296 0.12306544 0.016560704 0.09986794
-0.029015541 -0.18160993 0.08375183 0.16703784 -0.14467588 -0.004200056 -0.10235691 0.12720498
0.094082415 -0.05343628 -0.017332718 -0.042391002 -0.20941481 0.15186831 -0.020052493 -0.18940088
-0.007375613 0.08414093 0.14031151 -0.16939676 -0.13284957 0.020455077 -0.032168657 -0.030886471
0.111680746 -0.19110899 -0.14865768 -0.068484426 -0.049919605 -0.14067078 0.049102604 -0.057404965
0.20285141 0.036840737 0.06224665 -0.067959785 0.17284143 0.08480278 -0.1431974 -0.10644906
-0.026176512 -0.039476886 0.154861 0.1465232 -0.12883733 0.026275307 0.16282418 0.053762943
-0.13725561 0.18581927 0.21524155 -0.116043806 -0.18905886 0.13438678 -0.056162477 0.13865584
-0.14890128 0.13914314 -0.029945895 -0.17393741 -0.0046414733 0.068767905 -0.0069707334 0.20979533

lstm.weight_hh_l1 f4 [80, 20]
00000000: 78b1 313e 80b5 a8bc 0e96 0ebe 4a6a 1dbe
00000010: a759 02be 9014 0f3c dc75 d13d 90d9 c33c
00000020: 9bb4 1dbe 68f6 be3d 04e5 24bd 1eb6 4e3e
00000030: c583 ccbd fcea 273e 9eed 593e 929b 0fbe
00000040: 0c6f 39be 1c54 c2bd c7ab d9bd 0a4c 423e
00000050: c879 64be 686e 243d 70d2 663c 6a4f 85bd
00000060: 6b7d d0bd 7269 163e e6b2 2f3e 70c3 8dbc
00000070: 8279 1bbe 1e60 223e b606 543e 6448 51bd
00000080: 9899 aebc cc78 05be 0a18 513e fa4d 96bd
00000090: 926a 1cbe a86c aa3d e542 dbbd b901 08be
000000a0: ae2b 463e 7c05 093e 948f 143e 2b03 ccbd
000000b0: a8fc 433d d86d a33c 30c1 dd3d 9c5b 443e
000000c0: 0453 203e b0ce af3d c00f c1bb 1a0c 513e
000000d0: 586c babc fce8 83bd 70df 57bd be5d 2b3e
000000e0: 4066 82bb 605b 66bd e062 e43d f851 be3d
000000f0: a0ae aa3d ac1b 803d e845 763d b016 343d
00000100: 4672 043e 46ef 42be a625 23be a85e 84bc
00000110: 90b4 70bc e0cb 9a3b 5269 443e ea25 053e
00000120: 00f8 a039 f883 20be b8d4 a43c 50c3 c9bc
00000130: 2003 673d 2c30 603e ecf0 133e e728 04be
00000140: 66eb 97bd 6466 7abd ae37 103e 804b 27be
00000150: 9cf3 873d 283a a03c 080c b53c 8805 b83c
00000160: e49c 4e3e e016 d23d a8f9 583e 6230 4a3e
00000170: ceb5 0a3e f6e3 3a3e 9845 543d 30bd 393d
00000180: 360a 373e 1c1c 5fbd b721 61be 1e4c b4bd
00000190: 8426 ca3d 1524 46be 45e4 e9bd e08c 98bb
000001a0: 6e2d 483e 5609 643e ae7e 1a3e c02c bfbd
000001b0: 9282 203e 7029 1c3d f0fe a13d 942b 92bd
000001c0: 9691 073e e839 babd 9830 9cbc ce08 a1bd
000001d0: cc36 443e aed6 5bbe 6065 4e3d c405 dbbd
000001e0: 4c69 24be 649e d63d 3006 23be 3048 0c3d
000001f0: f0df 533c c366 f4bd 04bf 0b3e 2071 1dbc
00000200: b951 cbbd c2dc e7bd d032 33bc f0b2 8dbd
00000210: c01b ad3d 68e0 8b3d fb57 27be 00c0 39bd
00000220: d057 15bc 3834 62be 5ecc 383e 1485 9c3d
00000230: 4ab8 303e fca2 a33d 3e85 b7bd cadb c6bd
00000240: d077 c8bc be4d e3bd 0819 20be 38e9 563d
00000250: 28e9 803d 1874 613e c6fc 533e 2dfe f8bd
00000260: c2d7 3d3e 8574 02be 23a1 f5bd a0fd b33d
00000270: f81b a63d 60a1 8cbd 003b 16ba 4086 603e
00000280: d875 783d 8ced ae3d 181b 57be 04bf 953d
00000290: ea4c 02be 0e98 04be ebd1 d3bd e3bd 4bbe
000002a0: e141 d5bd a5a8 62be d046 39bc 40ad 54bc
000002b0: 0c70 33be d065 7d3d 809a 35be c273 2bbe
000002c0: 9dfd 28be 949a 13bd 20d4 55be e46b e5bd
000002d0: 5039 783d cee7 8fbd 880e dfbc 5c87 c23d
000002e0: 587c 8abc 8a29 493e fcbd a1bd a010 e2bd
000002f0: acfb 0cbd 3439 8bbd e8ff 433d 7e5f ecbd
00000300: 0835 563d 2fa0 55be 9c2c d53d 04cc 35be
00000310: 5802 bdbd a886 34bd 54d5 a33d f8b2 283d
00000320: aa71 22be d07b 6fbc 9d56 11be f0ec 71bc
00000330: 9483 f33d 404b fcbb 4c45 e93d c290 9bbd
00000340: 1233 3d3e ccde f93d 5839 32be 94c8 02be
00000350: 20fa 34bc 2cc2 34bd 0820 7e3d 80e9 023d
00000360: dc23 4c3e 40ec c63b 8837 023e e0cf 0abd
00000370: ee34 643e a458 153e f8da 78bd 50a7 f33d
00000380: 706b 363e 0f9b 30be ced0 22be 9063 a5bc
00000390: 3478 d73d 40a6 85bc baf0 0bbe 9484 3d3e
000003a0: d841 093d 78cc e8bc c079 1f3d 8062 073b
000003b0: c4aa 70bd d08d 2e3d e6f8 133e 94b0 12bd
000003c0: dcfe 2c3e d48f 0c3e c034 b3bd 3cb2 04be
000003d0: 1805 0cbe 6095 e23d 4e58 543e c812 e3bc
000003e0: 1a20 343e d2b9 c1bd 4adf e0bd 4e91 dfbd
000003f0: 4840 33be 285b 13be 30ab b7bd 7204 133e
0.17352855 -0.020594358 -0.13924429 -0.15372577 -0.12729512 0.00873293 0.10227558 0.023907453
-0.15400927 0.09324342 -0.04025747 0.2018666 -0.099860705 0.16398233 0.2128205 -0.14024189
-0.18108767 -0.09488699 -0.10628467 0.18974319 -0.22312081 0.040144354 0.014088258 -0.06509288
-0.101801716 0.14688662 0.17158088 -0.017305106 -0.1518307 0.15856978 0.20705685 -0.051094428
-0.021313474 -0.13034362 0.20419326 -0.073390916 -0.15275028 0.08321506 -0.107061185 -0.13281907
0.193526 0.13380998 0.14507896 -0.09961542 0.047848374 0.019949839 0.10827863 0.19175571
0.15656668 0.085843444 -0.00589177 0.20414773 -0.02275674 -0.064409226 -0.05270332 0.16734979
-0.0039794743 -0.056239486 0.111516714 0.09292978 0.08334088 0.06255278 0.06012526 0.04396695
0.12934217 -0.19036588 -0.1593233 -0.016158417 -0.014691487 0.004724011 0.19180802 0.13002744
0.00030702353 -0.15675342 0.020120963 -0.024629265 0.056399465 0.21893376 0.14447373 -0.12906228
-0.074179456 -0.061132804 0.1408374 -0.16337395 0.06638262 0.019558981 0.022100464 0.022463575
0.20177037 0.10258269 0.21188986 0.19745019 0.13545915 0.18251023 0.051824182 0.04534644
0.17874989 -0.054470167 -0.21985517 -0.08803581 0.098706275 -0.19349702 -0.11420492 -0.0046554655
0.1954858 0.22269186 0.15087387 -0.09334707 0.15674809 0.038125455 0.079099536 -0.07137218
0.1323913 -0.09093076 -0.01906614 -0.078630075 0.19161528 -0.21468613 0.050389647 -0.10694459
-0.16055793 0.10479429 -0.15920329 0.03424853 0.012931809 -0.11933663 0.13647085 -0.009609491
-0.09927697 -0.11321403 -0.010937408 -0.06918895 0.084525585 0.068299115 -0.16342156 -0.04534912
-0.009115174 -0.22090232 0.1804671 0.0764257 0.172578 0.07990071 -0.08960961 -0.0970989
-0.024471194 -0.110988125 -0.15634549 0.05246851 0.06294471 0.22016943 0.20701894 -0.12157855
0.18539336 -0.12739761 -0.11993625 0.087886095 0.08110803 -0.06866717 -0.00057308376 0.21926212
0.06065926 0.08541402 -0.21006429 0.07311824 -0.12724653 -0.1294863 -0.10342773 -0.19896655
-0.10412956 -0.22134645 -0.011308387 -0.012980759 -0.17523211 0.061864674 -0.17734718 -0.16743377
-0.16502996 -0.03603609 -0.208817 -0.11202219 0.060601532 -0.07026635 -0.027228609 0.09498474
-0.016904995 0.19644752 -0.07897565 -0.11038327 -0.0344197 -0.0679802 0.047851473 -0.11541651
0.05229667 -0.20861886 0.10408899 -0.17753607 -0.09228963 -0.04407373 0.079996735 0.041186303
-0.15863672 -0.014616922 -0.14193197 -0.014765963 0.11890331 -0.0076994 0.113901705 -0.0759597
0.18476513 0.12200698 -0.17404687 -0.12771827 -0.011045963 -0.04413049 0.062042266 0.031960964
0.19935554 0.0060706437 0.12716496 -0.03388965 0.22285816 0.14584595 -0.0607557 0.11897147
0.17814422 -0.1724665 -0.15899965 -0.020189077 0.10520974 -0.016314626 -0.13666049 0.18507606
0.03351006 -0.02841781 0.03893447 0.0020658076 -0.058756605 0.04261571 0.14450416 -0.03581293
0.16894096 0.13726741 -0.08750296 -0.12958616 -0.13673818 0.11063647 0.2073681 -0.027718917
0.17590371 -0.094592705 -0.10980089 -0.109163865 -0.1750499 -0.14390242 -0.08968198 0.14357165

lstm.bias_ih_l1 f4 [80]
00000000: 26ad b3bd 002d e1ba c01b 4fbe 7025 203e
00000010: d082 2a3d f4ae a13d 042f aabd 1459 d93d
00000020: 6464 133e 50f9 8cbc 28f7 12be b499 323e
00000030: 9c01 c8bd 9890 38bd a84c d13c 386b 34be
00000040: d023 2abd 2f5a 52be e047 ea3c 1c10 39be
00000050: c49b 23be e424 563e 2008 f93b 588a 4f3d
00000060: f034 d03d 8cc4 37bd 983d 103d 7c79 7dbd
00000070: 900e 62be 901d 263d dcaa a73d 4d5b 11be
00000080: b079 00bd d050 083d 45ba 1cbe d292 9fbd
00000090: 9c9d 56be 94c0 ccbd 4cf5 a43d 4009 243c
000000a0: 00e4 be39 d077 ad3d ac64 1a3e fc81 bfbd
000000b0: 5088 2a3d 4092 60bb ec65 dd3d f8e1 293d
000000c0: d467 c03d b878 cdbd a28d 563e 3edf 5a3e
000000d0: 4877 fbbc 6896 eebc 4e1e 60be 6666 4d3e
000000e0: caec 1cbe 98d2 7dbd d07e 8bbd b083 f53d
000000f0: 04ea 89bd eadb 0c3e 187b b0bd 498c 06be
00000100: 26f5 233e b8b8 8bbd a8ea 153d 58f2 adbd
00000110: 894c 18be 8b91 5bbe 15fd 2dbe 48c2 97bd
00000120: 3085 693c 62b2 1b3e f0c2 343d c089 cdbb
00000130: cc26 5bbe 058d 5abe 9cf3 d03d 58f2 80bc
-0.0877326 -0.0017179549 -0.2022543 0.15639281 0.04162866 0.07894698 -0.08309749 0.106126934
0.14393765 -0.017208725 -0.14352095 0.17441446 -0.09765932 -0.04505977 0.025549248 -0.17619026
-0.04153806 -0.20542215 0.028598726 -0.18072551 -0.15977389 0.2091251 0.0075998455 0.050669044
0.10166347 -0.044865176 0.03521499 -0.061883435 -0.22075868 0.040555537 0.08186886 -0.14194985
-0.03136605 0.033280194 -0.15305431 -0.077916756 -0.2095856 -0.09997669 0.08054599 0.010011971
0.00036409497 0.08470118 0.15077466 -0.093509644 0.041633904 -0.003426686 0.10810456 0.041475266
0.09394804 -0.10032791 0.20952466 0.21374223 -0.030696526 -0.029124454 -0.2188656 0.20058593
-0.15324703 -0.061968416 -0.06811297 0.11988008 -0.06734088 0.13755766 -0.08617228 -0.13139452
0.16011485 -0.06822342 0.03660074 -0.08493489 -0.14872946 -0.21442239 -0.16991074 -0.07410103
0.014252946 0.15204766 0.04413122 -0.0062725246 -0.21401519 -0.21342857 0.10202715 -0.015740559

lstm.bias_hh_l1 f4 [80]
00000000: 7401 28bd 9eb6 313e 58a1 5e3d c86b 823c
00000010: 185a e53d e005 3d3d ce1a 52be 2834 033e
00000020: a04b 503d a462 413e cc6d 0a3e 54eb cd3d
00000030: 66c8 0e3e 4ce6 e73d b410 283e c2a0 623e
00000040: d8db 033e 9ddf 30be 9c02 32be 5722 54be
00000050: 84e7 c33d a119 ebbd 68fb c23d b613 383e
00000060: ecea ae3d fa8d 3ebe d806 7ebd 553c ecbd
00000070: 9cf1 373e 4070 eb3c fa20 24be 9093 0e3c
00000080: 480d 27be 24cd 043e 6cfc 1cbe 3c70 db3d
00000090: 7ad1 343e c090 f8bd c432 1bbd 288f 853d
000000a0: b2eb 333e 581a fa3d 80ab 8dbb 247e 52be
000000b0: 98af 0fbd bacf 493e bc89 073e 3859 c23d
000000c0: d4e6 573e 3861 373e d0f6 fcbc fc11 503e
000000d0: b467 033e 46c2 98bd 7a0c 523e 547f 3abd
000000e0: b460 c53d 787c f03d 706c 94bc dcfc 15bd
000000f0: 3c07 e93d 04e6 8a3d 7bc7 03be 7075 15be
00000100: c087 af3d 6006 2bbd 1c15 1b3e b014 3b3e
00000110: ccf1 2cbe 0048 ac3d 6e9c 033e 1c98 393e
00000120: 7cde 04bd 2e45 273e 2411 a23d 60f8 26bd
00000130: 7c1b 21be 3c4c 313e 364e 403e 6895 cabc
-0.04101701 0.17354819 0.05435309 0.015920535 0.11198825 0.04614818 -0.20518038 0.12812865
0.05085337 0.18885285 0.13518447 0.10054651 0.13943633 0.113232225 0.16412622 0.22131637
0.12876832 -0.17272802 -0.17383808 -0.20716225 0.095656425 -0.11479498 0.09520608 0.17976269
0.085409015 -0.18608847 -0.062018245 -0.11534945 0.1796326 0.028740048 -0.16028205 0.008702174
-0.1631366 0.1296888 -0.15330666 0.107147664 0.17658034 -0.12136984 -0.03789021 0.065214455
0.1757038 0.12212056 -0.004323423 -0.20555931 -0.03507957 0.19708148 0.13236135 0.094896734
0.21084148 0.1790818 -0.030879408 0.2031936 0.12832528 -0.0745893 0.20512572 -0.045531586
0.09637585 0.117424905 -0.018118113 -0.0366181 0.11378333 0.06782153 -0.12869065 -0.1459558
0.08570814 -0.041754127 0.15144771 0.1826961 -0.16889113 0.084121704 0.12852642 0.18124431
-0.03243874 0.16334984 0.079134256 -0.040764213 -0.1573314 0.17314237 0.18779835 -0.024729446

fc.weight f4 [1, 20]
00000000: 9f19 00be a624 a3bd 7076 113d a2e7 4d3e
00000010: 34eb 1abd 50e6 723d 6e67 afbd b836 ffbd
00000020: e0cc 45bc 505f 20be 2a3f 4cbe ffd4 0cbe
00000030: fe36 233e 4415 163e fc15 5fbe 901f 443e
00000040: eeb0 153e 88de 873c 7810 b53d 6a35 083e
-0.12509774 -0.079659745 0.03551334 0.20107892 -0.037821963 0.059301674 -0.085646495 -0.12461609
-0.012072772 -0.15661359 -0.1994597 -0.13753127 0.15938947 0.1465655 -0.2178573 0.19152665
0.14618275 0.016585603 0.08841032 0.13301626
